ml-100k_sslpop.pt (torch, 337347 bytes, 2 tensors)

item_encoder.weight f4 [1683, 32]
0	0x0000911a	5.2053e-41
1	0x8000a6d4	-5.9847e-41
2	0x800026dc	-1.394e-41
3	0x00008b6a	5.0012e-41
4	0x00016fbb	1.31917e-40
5	0x800059df	-3.224e-41
6	0x00008b2c	4.9925e-41
7	0x27b926f2	5.139004e-15
8	0x000012c7	6.736e-42
9	0x800059c4	-3.2202e-41
10	0x0000d6f4	7.711e-41
11	0x8000a725	-5.996e-41
12	0x8000dd8f	-7.948e-41
13	0x80009ae9	-5.5571e-41
14	0x00007bb2	4.4374e-41
15	0x00013b03	1.13005e-40
16	0x800074a3	-4.1841e-41
17	0x800085c9	-4.7993e-41
18	0x000081b7	4.6533e-41
19	0x000026ca	1.3915e-41
20	0x0000570c	3.1227e-41
21	0x00008115	4.6306e-41
22	0x00022b90	1.99298e-40
23	0x0001ef05	1.7758e-40
24	0x0002c0b9	2.52807e-40
25	0x8000af49	-6.288e-41
26	0x8000b8c2	-6.6279e-41
27	0x00011066	9.7718e-41
28	0x8000a1a5	-5.7987e-41
29	0x80010d11	-9.6523e-41
30	0x80005b81	-3.2825e-41
31	0x0000b899	6.6221e-41
32	0x3e969f8a	0.29418594
33	0xbee57d12	-0.44821984
34	0x3ef7cfb4	0.48400652
35	0x3ed4f698	0.41594386
36	0xbf5384fd	-0.826248
37	0x3dc637a9	0.09678585
38	0xbe8a0f7f	-0.26964948
39	0xbd141aec	-0.036158487
40	0xbee6500c	-0.44982946
41	0xbea6ce5e	-0.3257932
42	0x3f3d34c7	0.73908657
43	0x3f9018b0	1.1257534
44	0x3f4a6b55	0.79070026
45	0xbe210b53	-0.15726976
46	0x3e8ccf02	0.27501684
47	0xbf49ec8b	-0.7887656
48	0x3fa67f21	1.3007547
49	0xbefad63c	-0.48991573
50	0xbf4cfafb	-0.80070466
51	0x3fc27a42	1.519356
52	0x3e0bec01	0.13664247
53	0xbf818745	-1.0119406
54	0xbe1bc5e8	-0.15212214
55	0x3ceeca0b	0.029149076
56	0xbf4faaa6	-0.81119764
57	0x3e8706f1	0.26372483
58	0x3f3ed405	0.74542266
59	0x3f971593	1.1803459
60	0x3da7da6d	0.08195958
61	0x3f1dbac0	0.6161308
62	0x3f36f870	0.71472836
63	0xbf5c4d98	-0.860559
64	0x3f63b64b	0.8895003
65	0xbf0358ca	-0.51307356
66	0xbea3a6ff	-0.31963345
67	0x3eec22c5	0.46120277
68	0xbd962190	-0.0733062
69	0xbf20d681	-0.62827307
70	0x3ef9fb06	0.48824328
71	0x3f985efb	1.1903986
72	0x3e4dc12a	0.20093217
73	0xbf895b08	-1.0730906
74	0x3f690ff8	0.9103999
75	0x3f2c11cd	0.6721466
76	0x3f03c40a	0.51471007
77	0xbe94ad72	-0.29038578
78	0x3faca75f	1.3488578
79	0x3ec21211	0.3790441
80	0x3f6bb0a0	0.92066383
81	0xbf5f9de4	-0.87350297
82	0x3ed87687	0.4227793
83	0x3ed132e1	0.4085913
84	0xbe6275a5	-0.2211519
85	0xbf31494e	-0.6925248
86	0xbec9fd84	-0.3945123
87	0xbf9f6e80	-1.2455597
88	0xbcc4c264	-0.024018474
89	0xbe9e1168	-0.30872655
90	0x3ea436c3	0.3207303
91	0x3fc9a5b2	1.5753691
92	0xbfb105e8	-1.3829927
93	0xbf0ece7c	-0.5578382
94	0x3f7349c2	0.9503442
95	0xbf4ead70	-0.80733395
96	0x3d80cfcd	0.06289635
97	0xbcb9fccf	-0.022703556
98	0x3d81f1ce	0.06344949
99	0xbe350bc3	-0.17680268
100	0x3e8eb2a8	0.2787068
101	0xbe56a3d0	-0.20960927
102	0xbe63db99	-0.22251739
103	0xbd29501c	-0.041336164
104	0x3ccdc3c3	0.02511776
105	0x3e6a97a2	0.22909406
106	0xbd49e9e5	-0.049295325
107	0xbd8e0adf	-0.06935667
108	0xbcf50d15	-0.029913465
109	0xbe08d507	-0.13362513
110	0xbe8fecea	-0.2811044
111	0xbe740c75	-0.23832877
112	0x3c6354c5	0.013875191
113	0x3e3f5844	0.18686014
114	0xbe193cc1	-0.14964582
115	0xba48eb82	-0.0007664488
116	0x3eacafc7	0.33727857
117	0x3e6af6dc	0.22945732
118	0xbd0148a9	-0.031563435
119	0x3d99bf0e	0.07507144
120	0x3c408d67	0.011752463
121	0x3d5b229d	0.053499807
122	0x3dbcf02f	0.09225499
123	0xbe8af418	-0.27139354
124	0xbd518dbf	-0.05116057
125	0x3e843390	0.2582059
126	0xbd9f3acb	-0.07774886
127	0x3da9a76b	0.082838856
128	0xbd854c6b	-0.06508716
129	0x3eb2d2b1	0.3492637
130	0x3e5ea4af	0.2174251
131	0xbe92f6f5	-0.28704038
132	0x3e3f278f	0.18667434
133	0xbde36edb	-0.111051284
134	0xbe9e41e7	-0.30909654
135	0xbece34c1	-0.40274623
136	0x3f0fd681	0.5618668
137	0xbe521df5	-0.2051924
138	0x3df0edcd	0.11764107
139	0xbf230b1b	-0.6368882
140	0xbef76bac	-0.48324335
141	0xbd0a5c38	-0.033779353
142	0x3dffcc19	0.124901004
143	0x3e2f4fbf	0.17120264
144	0xbdb1d123	-0.08682468
145	0xbed0e99b	-0.40803227
146	0x3eda1c22	0.4259959
147	0x3ee66e7b	0.45006165
148	0xbf0030d5	-0.5007451
149	0xbf1e2854	-0.61780286
150	0xbe888218	-0.26661754
151	0x3dcb9bf3	0.09941854
152	0x3d22f949	0.039788518
153	0xbdb74c61	-0.08950115
154	0xbedb42b9	-0.42824343
155	0xbd98893b	-0.0744805
156	0x3ed850f6	0.42249268
157	0xbddbc9dd	-0.10731862
158	0xbf277ad8	-0.6542182
159	0x3d46ac79	0.048504326
160	0x3f103302	0.5632783
161	0x3d56eb2d	0.052470375
162	0x3cb6ed97	0.022330089
163	0x3efe7326	0.49697226
164	0xbe868057	-0.2626979
165	0xbedb6be5	-0.42855754
166	0x3d93e4d7	0.07221382
167	0x3f1d6c02	0.6149293
168	0x3e424869	0.18972935
169	0xbe6f3a11	-0.23361994
170	0x3f0fe899	0.5621429
171	0x3f09ae0e	0.5378121
172	0x3fa0a375	1.2549883
173	0x3eaa8a0d	0.3330845
174	0x3f5a1073	0.8518135
175	0x3da7a71c	0.081861705
176	0xbed474cc	-0.4149536
177	0x3f40348a	0.7508017
178	0x3af1cb80	0.0018447489
179	0xbe8b15c5	-0.27165046
180	0xbf45255e	-0.7701014
181	0xbf378b64	-0.7169707
182	0xbf4c8c1e	-0.799013
183	0xbfda7fc9	-1.7070247
184	0x3d1994e2	0.0374955
185	0xbe6f49e5	-0.23368032
186	0x3e79d05b	0.24395888
187	0x3f056634	0.52109075
188	0xbf2d06b0	-0.6758833
189	0xbdf3f1e4	-0.11911371
190	0x3ec526ea	0.38506252
191	0xbef95eee	-0.48705238
192	0xbd9f2692	-0.077710286
193	0x3e3e37fe	0.18576047
194	0xbdcc7bed	-0.099845745
195	0x3e06e15f	0.1317191
196	0xbdf6d046	-0.12051444
197	0x3d8507b4	0.0649561
198	0x3f771ee5	0.96531516
199	0x3f8731e3	1.0562099
200	0xbb5fe638	-0.003416432
201	0x3cc80771	0.02441761
202	0xbe8fcdb1	-0.28086618
203	0x3e3ad13f	0.18243884
204	0xbe8a375e	-0.26995367
205	0x3edac0e9	0.42725304
206	0x3e82d8ed	0.25556126
207	0x3f2b9ee5	0.6703933
208	0x3d3342a4	0.043764725
209	0xbe5ef2ce	-0.2177231
210	0x3ebea2aa	0.37233478
211	0x3e6b4e63	0.22979121
212	0xbf52222d	-0.820834
213	0x3ec412d4	0.38295615
214	0x3f01aea6	0.5065712
215	0x3d39a381	0.045321945
216	0xbf2ec461	-0.682684
217	0xbdab255a	-0.083567336
218	0xbed81130	-0.42200613
219	0x3f724f65	0.94652396
220	0x3e9f92b6	0.3116662
221	0xbf3ed4d3	-0.74543494
222	0xbe876ccf	-0.26450202
223	0xbea5734f	-0.32314536
224	0xbf11644f	-0.56793684
225	0x3f6531a4	0.8952887
226	0xbf2a1e90	-0.66452885
227	0x3f008c31	0.50213915
228	0xbe011eb8	-0.12609375
229	0xbdf3dbb2	-0.11907138
230	0xbcebab72	-0.028768275
231	0x3f3cea7a	0.7379528
232	0x3e99d72d	0.3004698
233	0x3e9fa0cc	0.31177366
234	0x3daee2c5	0.085393466
235	0xbf0bd4d7	-0.5462164
236	0xbefb1b2a	-0.49044162
237	0xbba6a1b8	-0.0050851963
238	0xbdbd1e22	-0.09234263
239	0x3f32d0b6	0.6984972
240	0xbe85cb56	-0.26131696
241	0xbf0481f9	-0.5176082
242	0x3d082a47	0.033243444
243	0x3e44357a	0.19161025
244	0xbed8666e	-0.42265648
245	0xbefbe129	-0.4919522
246	0x3d4c6a7d	0.049906243
247	0x3e4fb0e1	0.20282318
248	0xbc89ac61	-0.01680583
249	0x3e582a12	0.21109799
250	0x3e7fc569	0.2497765
251	0x3efc2438	0.49246383
252	0x3f6b9612	0.92025864
253	0xbf56bb1c	-0.83879256
254	0xbe97fd64	-0.2968551
255	0x3d534ae0	0.05158508

user_encoder.weight f4 [943, 32]
0	0xbd2975f0	-0.04137224
1	0x3e023d95	0.12718804
2	0xbcdaedc1	-0.026724698
3	0x3e54fe66	0.2080017
4	0xbf08fe41	-0.5351296
5	0x3e5f2758	0.21792352
6	0x3ca388d8	0.019962713
7	0xbe86b661	-0.2631102
8	0x3e17063b	0.1474847
9	0xbf680de5	-0.906462
10	0xbedd576b	-0.43230757
11	0x3edd1b92	0.43185097
12	0xbd2d5138	-0.042313784
13	0x3f086729	0.5328241
14	0x3f3dd29c	0.7414949
15	0xbd77f642	-0.060537584
16	0x3f0ba294	0.5454495
17	0xbeedf6e8	-0.46477437
18	0xbccc468c	-0.024935983
19	0x3ea8e948	0.3299048
20	0xbea7bea1	-0.32762626
21	0xbd7e12ea	-0.062029757
22	0x3e4ae667	0.19814454
23	0x3f02d9c3	0.5111353
24	0xbdd9e458	-0.10639256
25	0xbec9097f	-0.39265057
26	0xbe46f7a3	-0.19430403
27	0xbf0d6c2d	-0.5524319
28	0x3e88b4d6	0.26700467
29	0xbea8421e	-0.32862943
30	0x3e1f0988	0.1553098
31	0xbe1d570f	-0.15365241
32	0xbc38bc28	-0.011275329
33	0x3eb50b49	0.35360172
34	0xbe84400b	-0.2583011
35	0x3f7de189	0.99172264
36	0x3da06b1e	0.07832931
37	0xbf42646f	-0.759345
38	0xbda31c17	-0.07964342
39	0xbe7bc4b9	-0.24586762
40	0xbd0cdcc5	-0.03439023
41	0x3e991d33	0.2990509
42	0xbe252ae7	-0.16129647
43	0xbf07b0f4	-0.53004384
44	0xbe1cc85d	-0.15310808
45	0xbf135030	-0.5754423
46	0x3e18c0a3	0.14917235
47	0x3ee4fa9b	0.44722447
48	0x3e4a4787	0.19753848
49	0x3dd2cedd	0.10293362
50	0xbe0f8ab3	-0.14017753
51	0x3e7eb9ab	0.24875514
52	0x3e8d2199	0.27564695
53	0xbf7f6a2a	-0.9977137
54	0xbec43420	-0.38321018
55	0xbcde8b03	-0.027165895
56	0x3f5cdf48	0.862782
57	0x3dc45bb6	0.09587805
58	0x3f15503c	0.5832555
59	0x3ec1f8c8	0.37885118
60	0x3f6f640b	0.9351203
61	0x3dc9640e	0.09833537
62	0xbe46f9a3	-0.19431166
63	0x3e7cee4c	0.24700278
64	0xbf08f04e	-0.53491676
65	0x3f85b992	1.0447257
66	0xbf772d65	-0.9655364
67	0x3c7941f1	0.015213476
68	0xbec7b16e	-0.39002556
69	0xbece1ac7	-0.40254804
70	0xbeebb8dd	-0.46039477
71	0xbdfb4b6b	-0.12270244
72	0x3dc716ca	0.097211435
73	0xbf3a6cde	-0.7282237
74	0xbe9682e6	-0.29396743
75	0xbc156406	-0.009118086
76	0xbd78b350	-0.06071788
77	0xbf4e6c57	-0.80634063
78	0x3f4a79ec	0.7909229
79	0x3f297279	0.66190296
80	0x3771633b	1.4387823e-05
81	0xbe7eb509	-0.24873747
82	0x3f5f7836	0.872928
83	0xbe74a94e	-0.2389271
84	0xbe18619f	-0.1488099
85	0x3edae4be	0.4275264
86	0x3e8120f0	0.25220442
87	0xbdf7a168	-0.12091333
88	0xbf2345be	-0.63778293
89	0xbe9155ea	-0.2838586
90	0xbe1e5ff1	-0.15466286
91	0x3f27c932	0.65541375
92	0x3eac9ce0	0.33713436
93	0xbf09b10a	-0.53785765
94	0xbebaf1f1	-0.36512712
95	0xbe963c53	-0.293429
96	0xbdbb1e57	-0.09136646
97	0x3df8806c	0.121338695
98	0xbf82501c	-1.0180697
99	0xbe984d19	-0.2974632
100	0xbf38f44f	-0.72247785
101	0x3e32a4d7	0.17445694
102	0x3e13c1a1	0.14429332
103	0xbe8068d9	-0.25079992
104	0x3dff8090	0.12475693
105	0xbf7e413c	-0.9931829
106	0xbb48be30	-0.0030630939
107	0xbe2ac4c1	-0.16676618
108	0x3dde98e0	0.10869002
109	0x3f89cee7	1.0766267
110	0x3e70f60f	0.23531364
111	0xbe8fcd2d	-0.28086224
112	0xbfc10e24	-1.508244
113	0xbf1a624b	-0.60306233
114	0xbe6957ab	-0.22787349
115	0x3f512d15	0.81709415
116	0xbf1c3771	-0.61022097
117	0x3df0afa1	0.117522486
118	0x3e0e792a	0.13913408
119	0x3f60ba9c	0.87784743
120	0x3f12a144	0.5727732
121	0x3e44e7bb	0.19229023
122	0xbe97e6c1	-0.2966824
123	0xbdebc08e	-0.11511336
124	0x3f0f7579	0.56038624
125	0x3db31ffa	0.087463334
126	0xbe707483	-0.23481946
127	0xbf3bc29f	-0.73343843
128	0x3ebf1a84	0.37324917
129	0x3da03276	0.07822125
130	0x3e478232	0.1948326
131	0xbe3267b6	-0.17422375
132	0xbd9227cc	-0.07136497
133	0xbc8a1d63	-0.016859716
134	0x3ce305f9	0.027712809
135	0x3d6c76d5	0.057730515
136	0x3e39a651	0.18129851
137	0x3d223e97	0.03961047
138	0x3e8aefad	0.27135983
139	0x3ecd1354	0.4005381
140	0xbdd5fefa	-0.104490235
141	0xbecfd89c	-0.40594947
142	0x3f0a8c55	0.5412038
143	0x3e489351	0.19587447
144	0xbebdb99e	-0.37055677
145	0x3d115198	0.035478204
146	0x3dbb5664	0.09147337
147	0xbe4e6ca4	-0.2015863
148	0x3dba750e	0.09104358
149	0xbeb611b0	-0.3556037
150	0xbe8b1277	-0.27162525
151	0xbedbe182	-0.42945486
152	0x3e098989	0.13431372
153	0x3e46cfe9	0.19415249
154	0x3f3b2541	0.7310372
155	0x3ec04178	0.3754995
156	0x3d640c2c	0.05567567
157	0xbeb11cc6	-0.34592265
158	0x3f0154ab	0.5051982
159	0x3ea34a4e	0.31892627
160	0xbe9107a2	-0.28326136
161	0x3ecafa1f	0.39643952
162	0x3e8f0f78	0.2794149
163	0x3e9ecd5d	0.31016055
164	0xbe6015e8	-0.21883357
165	0xbead6126	-0.3386318
166	0x3f27fa97	0.65616745
167	0x3e078985	0.13236053
168	0xbebf85a9	-0.37406662
169	0xbe112382	-0.14173701
170	0x3e9bb256	0.30409497
171	0xbf04e38e	-0.5190972
172	0x3e39dd3d	0.18150802
173	0x3e726180	0.23670006
174	0x3ee10740	0.43950844
175	0x3e378ca7	0.17924748
176	0x3ea7f1dc	0.32801712
177	0xbf1eff3d	-0.6210821
178	0xbee8c49c	-0.454625
179	0xbdede2ac	-0.116155
180	0xbea53b74	-0.32271922
181	0xbd149884	-0.036278263
182	0x3e634be8	0.22196925
183	0x3e9fee81	0.31236652
184	0xbf39fc0d	-0.72650224
185	0xbc6d3ff5	-0.014480581
186	0xbea50768	-0.32232213
187	0x3f639399	0.8889709
188	0x3ea61746	0.3243963
189	0xbf9c3f03	-1.220673
190	0xbe9b9847	-0.30389616
191	0x3e721dda	0.236442
192	0xbea238e7	-0.31684038
193	0xbef48bfd	-0.47763053
194	0xbedd1330	-0.431787
195	0x3f0f9208	0.560822
196	0xbcd6c475	-0.026216725
197	0x3e3f50ef	0.18683217
198	0x3de637ba	0.11241098
199	0x3f02212d	0.5083187
200	0x3e10ae59	0.14129008
201	0x3e787bb8	0.24265945
202	0xbba29a31	-0.0049622287
203	0xbf301fcd	-0.68798524
204	0x3e72a2a0	0.23694849
205	0x3eb46d02	0.35239416
206	0x3e9feae6	0.312339
207	0x3f9c3ae9	1.2205478
208	0x3d20d87d	0.03926896
209	0xbf3b72c2	-0.7322198
210	0x3e302547	0.1720172
211	0xbd9f3979	-0.07774634
212	0xbf5995b5	-0.8499406
213	0xbe36252d	-0.17787619
214	0x3f30fe53	0.6913807
215	0xbdbba532	-0.09162368
216	0x3e57c15c	0.21069854
217	0xbe8914bc	-0.26773632
218	0xbf02661e	-0.5093707
219	0x3f0e9b10	0.55705357
220	0xbf08e909	-0.53480583
221	0xbac87ad4	-0.0015295395
222	0x3ca6e7ed	0.020374263
223	0xbec66832	-0.3875137
224	0xbe116054	-0.14196903
225	0x3ea90bbf	0.33016774
226	0xbe7e4e40	-0.24834538
227	0x3f40939e	0.75225246
228	0xbe83a027	-0.25708124
229	0x3d80df89	0.06292636
230	0x3f27dd71	0.6557227
231	0xbe4bda4a	-0.1990749
232	0x3e99cc57	0.3003871
233	0xbed3d517	-0.41373512
234	0x3ea2686e	0.317203
235	0xbe591482	-0.2119923
236	0x3bbd077a	0.0057687135
237	0xbe734148	-0.23755372
238	0xbcd7becb	-0.026336094
239	0x3f013df1	0.5048514
240	0xbd179694	-0.037008837
241	0xbd96ecd5	-0.07369391
242	0x3e16fa1a	0.14743844
243	0xbec60817	-0.38678047
244	0xbd901d1a	-0.07036801
245	0xbf0eaac2	-0.55729306
246	0xbec98486	-0.3935892
247	0x3e7fd6d0	0.24984288
248	0xbdebeb70	-0.115195155
249	0x3eeb34a6	0.45938605
250	0xbee108d6	-0.43952054
251	0x3f1e34f5	0.61799556
252	0x3f58e07f	0.84717554
253	0xbf055ec8	-0.5209775
254	0x3d3ef1a2	0.046617158
255	0x3f34179f	0.7034854
